hw1_Regression/models/model.pth (torch, 26240 bytes, 3 tensors)

net.0.weight f4 [64, 93]
0	0x3d86d35e	0.06583284
1	0xbc8b8449	-0.017030852
2	0xbd2c23e3	-0.04202641
3	0x3be12235	0.006870533
4	0x3c0579b9	0.008146697
5	0x3d6f68d1	0.05844957
6	0x3d58daf8	0.0529432
7	0xbd00e78d	-0.031470824
8	0x3cebb61c	0.02877336
9	0xbc8b546c	-0.017008029
10	0x3d76fdf6	0.06030079
11	0x3d709988	0.05874017
12	0xbdbd1dfb	-0.09234234
13	0xbd1ac9a2	-0.03778995
14	0x3cec9ae9	0.02888246
15	0xbc15d125	-0.009144102
16	0x3d6fcb07	0.05854323
17	0xbc62d64c	-0.013845038
18	0x3d1742cc	0.036928937
19	0x3ae566e9	0.0017501983
20	0x3dde70f1	0.108613856
21	0x3e35dd95	0.17760308
22	0x3de6eaa9	0.112752266
23	0x3d48cb2e	0.049021892
24	0xbdba502a	-0.09097321
25	0x3d31b091	0.043381277
26	0xbd1a374c	-0.03765039
27	0x3d20172d	0.039084602
28	0xbc8f8e3c	-0.017523877
29	0xbd658b40	-0.056041002
30	0x3d27f5d7	0.041005936
31	0x3ddd402b	0.10803255
32	0xbdc4db83	-0.09612181
33	0xbdd91dab	-0.10601362
34	0x3c447e2a	0.0119929705
35	0xbd233db4	-0.039853767
36	0x3e242510	0.16029763
37	0xbc2a207f	-0.010383724
38	0xbcc9828b	-0.02459838
39	0x3cab9020	0.020942748
40	0x3ce36e94	0.027762689
41	0x3cc2bce4	0.02377171
42	0xbda256f2	-0.0792674
43	0xbe381190	-0.1797545
44	0xbc8ac5ce	-0.016940024
45	0xbd880fd4	-0.06643644
46	0xbdc09514	-0.094034344
47	0x3d288fb5	0.041152675
48	0xbdb71ee4	-0.08941439
49	0xbb868fc0	-0.004106492
50	0xbd8d3fcb	-0.06896933
51	0xbdb27b82	-0.087149635
52	0xbd3198f2	-0.04335875
53	0x3dc7e0c5	0.09759668
54	0x3da16c03	0.0788193
55	0xbd4f9856	-0.05068239
56	0x3d9c783f	0.076401226
57	0x3e2e8d56	0.17046103
58	0x3d6c69a3	0.05771793
59	0xbd71cf51	-0.059035603
60	0xbdac701e	-0.08419822
61	0xbe2ffaa5	-0.17185457
62	0x3cdd6967	0.027027799
63	0xbdad4440	-0.08460283
64	0x3d507be6	0.05089941
65	0xbc6cfdd8	-0.014464818
66	0x3dd1fc9e	0.10253261
67	0xbc8a7b2b	-0.016904434
68	0x3df56351	0.11981834
69	0xbe13d853	-0.1443799
70	0x3cbde2c0	0.023179412
71	0xbe101022	-0.14068654
72	0x3e156b6b	0.14591758
73	0x3e033b1a	0.12815514
74	0x3ca874c9	0.0205635
75	0x3e379ede	0.17931697
76	0x3df1f964	0.118151456
77	0xbdf1b80d	-0.11802683
78	0x3a357b14	0.0006922942
79	0xbd59db72	-0.053187795
80	0x3c59c77b	0.013292189
81	0xbdda415b	-0.10656997
82	0xbdcfe1ba	-0.10150476
83	0xbd7ce8b4	-0.06174536
84	0xbc9b5821	-0.018962922
85	0x3d5cd0cb	0.053910058
86	0xbc80fc5c	-0.015745334
87	0x3cb10dac	0.021612965
88	0x3d7bd9b1	0.061486904
89	0xbdf20bd2	-0.11818661
90	0x3bdb1bd5	0.0066866674
91	0x3dda1712	0.106489316
92	0x3e796a7e	0.2435703
93	0x3cbb660b	0.022875806
94	0xbe36cc3b	-0.17851345
95	0x3d2b96f0	0.041891992
96	0x3c728c56	0.0148039665
97	0xbcd4d343	-0.025979644
98	0xbc01e563	-0.007928225
99	0x3de9c580	0.11414623
100	0xbdcdb818	-0.10044879
101	0xbd122565	-0.035680193
102	0xbd31fef3	-0.04345603
103	0x3d02b030	0.031906307
104	0xbbf3519e	-0.007425501
105	0x3d26faca	0.040766515
106	0x3e4328e3	0.19058566
107	0x3d05ef8b	0.03269915
108	0x3d397101	0.045273785
109	0xbdb22c6e	-0.086998805
110	0xbd40738d	-0.046985198
111	0xbd9bd959	-0.07609815
112	0xbc8682b1	-0.01641974
113	0x3e06be42	0.13158515
114	0x3e4a8346	0.1977664
115	0x3c896f8a	0.016776819
116	0x3e29a3a7	0.16566335
117	0x3dd0c1c0	0.10193205
118	0x3d4da883	0.050209533
119	0xbd913c10	-0.07091534
120	0x3e0c2ea7	0.13689671
121	0x3d99d403	0.07511141
122	0x3b19c3b8	0.0023462605
123	0xbca93b9f	-0.020658312
124	0x3d3cb13f	0.046067473
125	0xbe912335	-0.28347173
126	0xbd5420bf	-0.05178904
127	0x3e0473b4	0.12934762
128	0x3d988cda	0.0744874
129	0x3daf631a	0.08563824
130	0xbe025288	-0.12726796
131	0xbc475bb5	-0.012167861
132	0x3d1e19a9	0.03859869
133	0xbd0a75b1	-0.033803646
134	0x3d0aa834	0.033851817
135	0x3d908625	0.07056836
136	0xbd3f324c	-0.046678826
137	0xbd3ac154	-0.04559453
138	0x3e0ac077	0.13549982
139	0x3d35e1c4	0.04440476
140	0x3d9fd171	0.0780362
141	0x3cad4d24	0.021154948
142	0xbd651e06	-0.055936836
143	0x3cc3f526	0.023920607
144	0x3dd43a47	0.10362678
145	0x3d285bc8	0.041103154
146	0xbd7a97c3	-0.061179888
147	0xbd9d1bee	-0.07671343
148	0x3ca3aeb1	0.01998076
149	0xbda60a89	-0.08107478
150	0xbcacfcc2	-0.021116618
151	0x3e04e265	0.12976988
152	0xbdaea95e	-0.08528398
153	0xbda9f36b	-0.082983814
154	0x3bc94a26	0.0061428724
155	0x3d74f014	0.05979927
156	0x3cf6094a	0.030033726
157	0x3cf4ff47	0.029906882
158	0xbd69190f	-0.056908663
159	0xbc3378f7	-0.010954133
160	0xbe19cc12	-0.15019253
161	0x3d62dc2d	0.055385757
162	0xbd755d08	-0.059903175
163	0xbd8e33c3	-0.069434665
164	0xbc2b7216	-0.010464212
165	0xbcf57004	-0.02996064
166	0xbe0699d6	-0.13144621
167	0xbd4e082b	-0.05030076
168	0x3f070ab9	0.52750736
169	0xbd094e8d	-0.033522177
170	0x3dad09c5	0.08449129
171	0x3d0f050c	0.034916922
172	0xbc9ac72a	-0.018893797
173	0x3c7ff454	0.015622217
174	0xbe2cf621	-0.16890766
175	0xbce5a4f0	-0.02803275
176	0xbe46ce38	-0.19414604
177	0x3d85db5f	0.06535982
178	0xbc5f536a	-0.013630727
179	0x3de70797	0.112807445
180	0x3d731241	0.05934358
181	0x3d0fd391	0.035113875
182	0x3de30bd9	0.11086244
183	0x3d11f0c3	0.03563
184	0x3c7bd697	0.015370986
185	0xbe4cdf47	-0.20007049
186	0x3c4764c6	0.012170022
187	0xbe30cf12	-0.17266491
188	0xbd5fd193	-0.054643225
189	0x3c9bd490	0.019022256
190	0xbe28680d	-0.16445942
191	0x3e26021b	0.1621174
192	0x3d6c6887	0.057716873
193	0x3c252a63	0.010080907
194	0x3da14a19	0.07875461
195	0x3d28621b	0.041109186
196	0x3d768174	0.06018205
197	0xbd2cef88	-0.042220622
198	0x3d013931	0.031548683
199	0x3c9488b4	0.018131591
200	0x3d1b15cc	0.037862584
201	0x3e481e44	0.19542795
202	0x3cbf8249	0.023377554
203	0xbe4b5dde	-0.19860026
204	0xbc4a28a3	-0.01233879
205	0x3d85eaad	0.065389015
206	0x3da75ca7	0.08171969
207	0x3e4f9d4d	0.20274849
208	0x3e058abf	0.13041209
209	0x3d913f54	0.07092157
210	0xbcf33d19	-0.02969222
211	0x3ca48511	0.020082982
212	0xbe92d2fb	-0.2867659
213	0x3dbbddda	0.09173174
214	0x3dc1dd91	0.094660886
215	0x3d35689c	0.044289216
216	0x3ca501e5	0.020142505
217	0x3e2df7ca	0.16989055
218	0xbda82e72	-0.08211984
219	0x3cd4be84	0.025969751
220	0xbc4c6c35	-0.01247697
221	0xbdb2c182	-0.08728315
222	0x3ca6e356	0.020372074
223	0xbdff8585	-0.12476639
224	0xbd9edcd3	-0.077569626
225	0x3dc867f6	0.09785454
226	0x3c20689a	0.009790564
227	0x3d13ab0c	0.036051795
228	0x3d11e464	0.0356182
229	0xbdfc8622	-0.12330271
230	0xbdc03d27	-0.09386664
231	0x3d93b5a7	0.07212382
232	0xbc337c6d	-0.010954958
233	0x3d65ba33	0.056085777
234	0xbdee512a	-0.116365746
235	0x3b957604	0.0045611877
236	0xbe15d59d	-0.14632268
237	0xbd254b0d	-0.040354777
238	0x3deee81b	0.11665364
239	0x3c23b6ba	0.009992296
240	0xbd02169f	-0.031759854
241	0xbd7ffcf3	-0.06249709
242	0xbde61efc	-0.112363786
243	0xbd6d268f	-0.0578981
244	0x3d38d2b3	0.045122813
245	0xbcf5f1ab	-0.030022463
246	0xbd4f06e2	-0.050543673
247	0xbd709aa4	-0.058741227
248	0x3cd179e3	0.025570815
249	0xbb1fc056	-0.0024376116
250	0x3e089807	0.13339244
251	0x3e0079fa	0.1254653
252	0xbe4c5c45	-0.19957073
253	0xbd8b9457	-0.06815403
254	0xbe1866d3	-0.14882974
255	0x3df1b5ec	0.11802277

net.0.bias f4 [64]
0	0x3ea40256	0.32033032
1	0x3f54ed92	0.83175004
2	0x3f5c57c9	0.8607145
3	0xbe470785	-0.19436462
4	0xbe2cbbe4	-0.1686855
5	0x3ca96bd0	0.020681292
6	0xbc17719c	-0.009243395
7	0xbdcc2d72	-0.099696055
8	0x3dc9139e	0.09818195
9	0x3ee471da	0.44618112
10	0xbe3596f8	-0.17733371
11	0x3f73ed5b	0.9528405
12	0x3d8b68a0	0.06807065
13	0x3fbe38bd	1.4861065
14	0xbdfb7745	-0.12278608
15	0x3eed470b	0.46343264
16	0x3e317c46	0.17332563
17	0x3ef41179	0.4766958
18	0xbe82a5e6	-0.25517195
19	0x3c9ad7e1	0.018901767
20	0x3ebd08ee	0.36920875
21	0x3ea61e98	0.32445216
22	0xbe5c67ef	-0.21524023
23	0xbe5c23e3	-0.21498065
24	0x3c455e57	0.012046418
25	0x3eaa7ae5	0.33296886
26	0x3e865fcd	0.26244965
27	0x3f17acfa	0.59248316
28	0xbd895b0a	-0.067068174
29	0xbdb222ad	-0.0869802
30	0x3e94036a	0.28908855
31	0x3f52dc22	0.82367146
32	0x3e9b045f	0.30276772
33	0x3f24d686	0.64389837
34	0x3e870744	0.2637273
35	0xbe7d974b	-0.24764745
36	0xbda512b1	-0.08060206
37	0x3e409472	0.18806627
38	0x3ecf791a	0.4052208
39	0x3efe56f1	0.49675706
40	0xbe8aecf5	-0.2713391
41	0x3d7543cd	0.059879113
42	0xbdd28855	-0.102799095
43	0xbe3bb120	-0.18329287
44	0x3e84240e	0.25808758
45	0x3e815379	0.25258997
46	0xb9cd4218	-0.0003914989
47	0x3ebbcf65	0.36681667
48	0x3e47f5f9	0.19527425
49	0x3f0ba785	0.5455249
50	0x3e53a8cb	0.20669858
51	0x3f3395f4	0.70150685
52	0x3e4d8227	0.2006918
53	0x3ea8ab5f	0.32943246
54	0x3ed8f5f4	0.42375147
55	0x3f40f662	0.7537595
56	0x3d249c53	0.040188145
57	0xbd754d4c	-0.05988817
58	0x3f0ffa52	0.56241333
59	0x3f39e743	0.726185
60	0x3e082b94	0.13297874
61	0x3e975368	0.2955582
62	0xbe88dc68	-0.26730657
63	0x3dbe9818	0.09306353

net.2.weight f4 [1, 64]
0	0x3e5976c5	0.21236713
1	0x3f4042a3	0.7510168
2	0x3f557ac9	0.8339048
3	0x3ec95128	0.3931973
4	0x3e89b22e	0.26893753
5	0x3e850701	0.25981906
6	0x3f03e30b	0.51518315
7	0x3ee7cd69	0.45273903
8	0x3f79db2d	0.9760006
9	0x3f109d6c	0.56490207
10	0x3f632704	0.8873141
11	0x3f47c93e	0.78041446
12	0x3f4f810a	0.81056273
13	0x3f9999fc	1.2000117
14	0xbf2b2c25	-0.66864234
15	0x3ead3387	0.33828375
16	0x3f171363	0.59013957
17	0x3f4d6080	0.8022537
18	0x3f0b9794	0.54528165
19	0x3e95c4e8	0.2925179
20	0x3f544383	0.82915515
21	0x3f5e59c5	0.8685573
22	0x3ede1137	0.4337251
23	0x3ef834db	0.48477826
24	0x3eea34e6	0.45743483
25	0x3f29e266	0.6636108
26	0x3eb7a6bb	0.35869393
27	0x3f10b1ce	0.5652131
28	0x3eb4311a	0.35193712
29	0x3eb6c58b	0.35697588
30	0x3f003c2f	0.5009183
31	0x3f33e8b2	0.7027694
32	0x3eb0df6b	0.34545454
33	0x3f37dd5c	0.7182214
34	0x3ea4e38f	0.32204863
35	0x3f123ceb	0.57124203
36	0x3ea8439b	0.3286408
37	0x3f325f5a	0.69676745
38	0x3e3620f7	0.17786013
39	0x3f1fd6d1	0.6243716
40	0x3f08277a	0.53185236
41	0x3e90d6d6	0.28288907
42	0x3e4a352d	0.19746847
43	0x3e926ca8	0.28598523
44	0x3ee37ca9	0.44431046
45	0x3eeacaa9	0.45857742
46	0x3e5bd824	0.2146917
47	0x3ed0d916	0.40790623
48	0x3ef5428c	0.47902334
49	0x3ea433f2	0.3207088
50	0x3f073154	0.52809644
51	0x3f49bfcb	0.7880828
52	0x3f19bcc0	0.60053635
53	0x3f3342d7	0.70023865
54	0x3e646748	0.22305024
55	0x3f2e85ab	0.6817271
56	0x3f00e112	0.5034343
57	0x3ed0c64c	0.40776289
58	0x3efa3bf5	0.4887387
59	0x3f30bc9b	0.6903779
60	0x3e64e4f8	0.2235297
61	0x3ee1dc8f	0.44113585
62	0x3f2a6268	0.66556406
63	0xbec5dd1b	-0.38645253
